lite/examples/speech_commands/android/app/src/main/assets/makeMissModelv01.tflite (tflite, 42312 bytes, 2 tensors)

weights_quant/FakeQuantWithMinMaxVars u1 [1, 10, 8, 8] scale=0.0010036478 zero_point=136
0.0020072956 0.020072956 0.044160504 -0.085310064 0.039142266 0.0030109435 0.013047421 0.026094843
-0.013047421 0.020072956 -0.039142266 -0.013047421 -0.024087548 0.0030109435 -0.018065661 0.08229912
-0.008029182 0.021076605 0.081295475 0.015054717 0.0672444 0.0 -0.04114956 0.008029182
0.009032831 0.039142266 -0.061222516 0.017062012 -0.011040126 -0.004014591 0.0010036478 0.043156855
-0.0020072956 -0.0030109435 0.083302766 0.060218867 0.017062012 0.008029182 -0.063229814 -0.038138617
-0.0020072956 0.022080252 -0.058211572 0.035127673 0.008029182 -0.009032831 0.013047421 -0.022080252
-0.005018239 0.0030109435 0.10939761 0.0692517 0.0 0.0 -0.05018239 -0.10939761
-0.010036478 0.0070255348 -0.04215321 0.006021887 -0.0010036478 -0.016058365 -0.031113083 -0.06824805
0.0030109435 0.011040126 0.052189685 -0.09133195 0.052189685 -0.013047421 0.016058365 0.0461678
-0.0070255348 0.02709849 -0.015054717 -0.026094843 -0.026094843 -0.005018239 -0.0030109435 0.07025535
-0.006021887 0.026094843 0.085310064 0.009032831 0.07527359 -0.013047421 -0.016058365 0.026094843
0.0030109435 0.005018239 -0.022080252 0.012043774 -0.024087548 0.010036478 0.03312038 0.036131322
-0.0020072956 -0.013047421 0.08430642 0.062226165 0.013047421 0.0 -0.04215321 -0.018065661
0.004014591 0.0020072956 -0.0140510695 0.017062012 -0.0140510695 -0.015054717 0.048175097 -0.010036478
-0.006021887 -0.017062012 0.112408556 0.081295475 -0.012043774 0.012043774 -0.0461678 -0.10939761
0.0020072956 0.005018239 0.004014591 0.009032831 -0.018065661 -0.008029182 -0.019069308 -0.06423346
0.0 -0.006021887 0.020072956 -0.08731736 0.0692517 -0.0010036478 0.015054717 0.05921522
0.010036478 -0.008029182 -0.044160504 -0.044160504 -0.028102139 -0.012043774 0.0 0.05520063
-0.010036478 0.008029182 0.043156855 -0.0010036478 0.07527359 0.0 -0.008029182 0.038138617
-0.008029182 -0.0020072956 -0.04014591 -0.006021887 -0.028102139 -0.0140510695 0.04215321 0.039142266
-0.012043774 -0.015054717 0.060218867 0.047171447 0.0030109435 0.006021887 -0.024087548 -0.020072956
0.0 0.0030109435 -0.0070255348 0.0020072956 -0.029105786 -0.008029182 0.048175097 -0.004014591
-0.009032831 -0.011040126 0.08229912 0.072262645 -0.022080252 -0.0020072956 -0.035127673 -0.10237207
-0.004014591 -0.026094843 0.0140510695 0.005018239 -0.029105786 -0.004014591 -0.028102139 -0.056204278
-0.015054717 -0.024087548 0.010036478 -0.098357484 0.09635019 0.009032831 0.0030109435 0.060218867
-0.015054717 -0.0230839 -0.061222516 -0.053193334 -0.021076605 -0.006021887 -0.005018239 0.060218867
0.0010036478 -0.011040126 0.018065661 -0.019069308 0.07828453 0.006021887 -0.013047421 0.048175097
0.008029182 -0.015054717 -0.058211572 -0.0020072956 -0.021076605 -0.0140510695 0.051186036 0.03312038
0.017062012 -0.02709849 0.03211673 0.058211572 -0.0020072956 -0.0030109435 -0.03312038 -0.025091195
-0.004014591 -0.015054717 -0.011040126 0.024087548 -0.025091195 -0.010036478 0.057207923 -0.009032831
-0.0070255348 -0.0070255348 0.063229814 0.0692517 -0.036131322 0.0070255348 -0.028102139 -0.10036478
0.0 -0.048175097 0.010036478 0.021076605 -0.03312038 -0.011040126 -0.013047421 -0.053193334
00000000: 8a9c b433 af8b 95a2 7b9c 617b 708b 76da
00000010: 809d d997 cb88 5f90 91af 4b99 7d84 89b3
00000020: 8685 dbc4 9990 4962 869e 4eab 907f 9572
00000030: 838b f5cd 8888 561b 7e8f 5e8e 8778 6944
00000040: 8b93 bc2d bc7b 98b6 81a3 796e 6e83 85ce
00000050: 82a2 dd91 d37b 78a2 8b8d 7294 7092 a9ac
00000060: 867b dcc6 9588 5e76 8c8a 7a99 7a79 b87e
00000070: 8277 f8d9 7c94 5a1b 8a8d 8c91 7680 7548
00000080: 8882 9c31 cd87 97c3 9280 5c5c 6c7c 88bf
00000090: 7e90 b387 d388 80ae 8086 6082 6c7a b2af
000000a0: 7c79 c4b7 8b8e 7074 888b 818a 6b80 b884
000000b0: 7f7d dad0 7286 6522 846e 968d 6b84 6c50
000000c0: 7970 9226 e891 8bc4 7971 4b53 7382 83c4
000000d0: 897d 9a75 d68e 7bb8 9079 4e86 737a bba9
000000e0: 996d a8c2 8685 676f 8479 7da0 6f7e c17f
000000f0: 8181 c7cd 648f 6c24 8858 929d 677d 7b53

weights_quant_1/FakeQuantWithMinMaxVars/transpose u1 [10, 4000] scale=0.00039757678 zero_point=118
0.00039757678 -0.016300648 0.00079515355 0.0 0.008746689 0.011529727 0.0047709215 0.007156382
0.0015903071 -0.04572133 -0.005168498 -0.0011927304 0.010734573 0.0063612284 -0.016698224 -0.013517611
0.007951535 -0.040552832 0.01590307 0.00039757678 0.0222643 0.00079515355 -0.0039757676 -0.008746689
-0.0039757676 -0.0341916 -0.0039757676 -0.0063612284 -0.0043733446 -0.012722457 -0.0027830375 0.011927303
-0.011927303 -0.022661876 0.0047709215 -0.008349112 0.0011927304 -0.0019878838 -0.007553959 0.0067588054
0.009541843 -0.025047338 -0.016698224 0.0019878838 -0.009144266 0.0027830375 -0.0031806142 0.0019878838
0.0170958 -0.015505495 0.00039757678 0.005566075 0.0039757676 0.014312764 0.0011927304 -0.0019878838
0.015505495 -0.008349112 -0.0023854608 -0.0039757676 -0.0039757676 0.010336996 0.005168498 -0.010336996
0.005168498 -0.019481262 -0.013915187 0.0059636515 0.0039757676 -0.0011927304 -0.00039757678 -0.0011927304
-0.0015903071 -0.016300648 -0.0011927304 -0.007951535 -0.018288532 -0.0170958 -0.0031806142 -0.007156382
-0.0031806142 -0.027830373 -0.003578191 0.0015903071 0.0031806142 0.00039757678 -0.0023854608 0.0059636515
-0.0023854608 -0.021469146 -0.003578191 0.009541843 -0.010734573 0.0039757676 -0.0023854608 0.0011927304
-0.0015903071 -0.009144266 0.0019878838 0.0063612284 -0.005168498 -0.0039757676 0.009939419 -0.009939419
0.008746689 -0.015505495 -0.009541843 -0.003578191 0.007156382 -0.010734573 0.0027830375 0.007553959
-0.0067588054 -0.016698224 0.0011927304 0.014710341 0.010734573 0.009144266 -0.009144266 0.014710341
-0.0063612284 -0.02345703 0.011529727 0.0 -0.005168498 -0.009144266 -0.0043733446 -0.00039757678
-0.010734573 -0.008746689 -0.0015903071 0.012722457 -0.0015903071 0.014312764 0.009144266 -0.00079515355
0.005168498 -0.014312764 -0.01113215 -0.0011927304 -0.0031806142 -0.007951535 0.011529727 -0.019083686
-0.003578191 -0.010734573 -0.0011927304 0.008349112 0.0059636515 -0.0063612284 0.008746689 -0.0023854608
-0.0019878838 -0.012722457 -0.01232488 -0.005168498 0.01232488 0.01113215 -0.007553959 -0.00079515355
0.0063612284 -0.028227951 0.00039757678 0.0027830375 0.009939419 -0.0059636515 0.0063612284 0.003578191
0.015505495 -0.023854606 -0.016698224 -0.0043733446 0.010734573 -0.0043733446 -0.0059636515 0.0039757676
0.010336996 0.005566075 -0.0019878838 -0.013915187 0.02584249 -0.011927303 -0.005566075 0.0
-0.00039757678 -0.013517611 0.00079515355 -0.005168498 -0.0039757676 -0.0019878838 -0.02107157 -0.0059636515
0.013120034 -0.00079515355 -0.01113215 -0.0063612284 -0.012722457 0.005168498 0.0067588054 -0.005566075
0.0067588054 -0.009939419 0.0023854608 0.007553959 -0.0067588054 -0.0047709215 -0.015107918 -0.005168498
-0.009939419 -0.016698224 -0.0011927304 0.0059636515 -0.018686108 0.007156382 -0.013517611 0.0063612284
0.009144266 -0.01113215 0.0023854608 0.0015903071 -0.005168498 -0.007951535 -0.00039757678 -0.005168498
0.0019878838 -0.020276416 0.003578191 -0.0015903071 0.00079515355 0.0015903071 -0.0027830375 0.010336996
0.007951535 -0.0059636515 0.0011927304 -0.0011927304 -0.018686108 0.008349112 0.00039757678 -0.010336996
-0.008746689 -0.01113215 -0.00079515355 0.012722457 0.0059636515 -0.013120034 0.007951535 -0.013915187
0.0039757676 -0.020673992 0.00039757678 0.0031806142 -0.018686108 0.016300648 -0.0015903071 0.0047709215
00000000: 774d 7876 8c93 8288 7a03 6973 9186 4c54
00000010: 8a10 9e77 ae78 6c60 6c20 6c66 6b56 6f94
00000020: 583d 8261 7971 6387 8e37 4c7b 5f7d 6e7b
00000030: a14f 7784 809a 7971 9d61 706c 6c90 835c
00000040: 8345 5385 8073 7573 724d 7362 484b 6e64
00000050: 6e30 6d7a 7e77 7085 7040 6d8e 5b80 7079
00000060: 725f 7b86 696c 8f5d 8c4f 5e6d 885b 7d89
00000070: 654c 799b 918d 5f9b 663b 9376 695f 6b75
00000080: 5b60 7296 729a 8d74 8352 5a73 6e62 9346
00000090: 6d5b 738b 8566 8c70 7156 5769 9592 6374
000000a0: 862f 777d 8f67 867f 9d3a 4c6b 916b 6780
000000b0: 9084 7153 b758 6876 7554 7869 6c71 4167
000000c0: 9774 5a66 5683 8768 875d 7c89 656a 5069
000000d0: 5d4c 7385 4788 5486 8d5a 7c7a 6962 7569
000000e0: 7b43 7f72 787a 6f90 8a67 7973 478b 775c
000000f0: 605a 7496 8555 8a53 8042 777e 479f 7282
